…
 days (test):  ['20181204', '20181205', '20181206', '20181207', '20181208', '20181209', '20181210', '20181211', '20181212', '20181213', '20181214', '20181215', '20181216', '20181217', '20181218', '20181219', '20181220', '20181221', '20181222', '20181223', '20181224', '20181225', '20181226', '20181227', '20181228', '20181229', '20181230', '20181231']

elapsed time (loading data): 133.928 seconds

==========
compiling model...
**at the first time, it takes a few minites to compile if you use [Theano] as the backend**
____________________________________________________________________________________________________
Layer (type)                     Output Shape          Param #     Connected to                     
====================================================================================================
input_1 (InputLayer)             (None, 6, 4, 4)       0                                            
____________________________________________________________________________________________________
input_2 (InputLayer)             (None, 2, 4, 4)       0                                            
____________________________________________________________________________________________________
input_3 (InputLayer)             (None, 2, 4, 4)       0                                            
____________________________________________________________________________________________________
convolution2d_1 (Convolution2D)  (None, 64, 4, 4)      3520        input_1[0][0]                    
____________________________________________________________________________________________________
convolution2d_7 (Convolution2D)  (None, 64, 4, 4)      1216        input_2[0][0]                    
____________________________________________________________________________________________________
convolution2d_13 (Convolution2D) (None, 64, 4, 4)      1216        input_3[0][0]                    
____________________________________________________________________________________________________
activation_1 (Activation)        (None, 64, 4, 4)      0           convolution2d_1[0][0]            
____________________________________________________________________________________________________
activation_6 (Activation)        (None, 64, 4, 4)      0           convolution2d_7[0][0]            
____________________________________________________________________________________________________
activation_11 (Activation)       (None, 64, 4, 4)      0           convolution2d_13[0][0]           
____________________________________________________________________________________________________
convolution2d_2 (Convolution2D)  (None, 64, 4, 4)      36928       activation_1[0][0]               
____________________________________________________________________________________________________
convolution2d_8 (Convolution2D)  (None, 64, 4, 4)      36928       activation_6[0][0]               
____________________________________________________________________________________________________
convolution2d_14 (Convolution2D) (None, 64, 4, 4)      36928       activation_11[0][0]              
____________________________________________________________________________________________________
activation_2 (Activation)        (None, 64, 4, 4)      0           convolution2d_2[0][0]            
____________________________________________________________________________________________________
activation_7 (Activation)        (None, 64, 4, 4)      0           convolution2d_8[0][0]            
____________________________________________________________________________________________________
activation_12 (Activation)       (None, 64, 4, 4)      0           convolution2d_14[0][0]           
____________________________________________________________________________________________________
convolution2d_3 (Convolution2D)  (None, 64, 4, 4)      36928       activation_2[0][0]               
____________________________________________________________________________________________________
convolution2d_9 (Convolution2D)  (None, 64, 4, 4)      36928       activation_7[0][0]               
____________________________________________________________________________________________________
convolution2d_15 (Convolution2D) (None, 64, 4, 4)      36928       activation_12[0][0]              
____________________________________________________________________________________________________
merge_1 (Merge)                  (None, 64, 4, 4)      0           convolution2d_1[0][0]            
                                                                   convolution2d_3[0][0]            
____________________________________________________________________________________________________
merge_3 (Merge)                  (None, 64, 4, 4)      0           convolution2d_7[0][0]            
                                                                   convolution2d_9[0][0]            
____________________________________________________________________________________________________
merge_5 (Merge)                  (None, 64, 4, 4)      0           convolution2d_13[0][0]           
                                                                   convolution2d_15[0][0]           
____________________________________________________________________________________________________
activation_3 (Activation)        (None, 64, 4, 4)      0           merge_1[0][0]                    
____________________________________________________________________________________________________
activation_8 (Activation)        (None, 64, 4, 4)      0           merge_3[0][0]                    
____________________________________________________________________________________________________
activation_13 (Activation)       (None, 64, 4, 4)      0           merge_5[0][0]                    
____________________________________________________________________________________________________
convolution2d_4 (Convolution2D)  (None, 64, 4, 4)      36928       activation_3[0][0]               
____________________________________________________________________________________________________
convolution2d_10 (Convolution2D) (None, 64, 4, 4)      36928       activation_8[0][0]               
____________________________________________________________________________________________________
convolution2d_16 (Convolution2D) (None, 64, 4, 4)      36928       activation_13[0][0]              
____________________________________________________________________________________________________
activation_4 (Activation)        (None, 64, 4, 4)      0           convolution2d_4[0][0]            
____________________________________________________________________________________________________
activation_9 (Activation)        (None, 64, 4, 4)      0           convolution2d_10[0][0]           
____________________________________________________________________________________________________
activation_14 (Activation)       (None, 64, 4, 4)      0           convolution2d_16[0][0]           
____________________________________________________________________________________________________
convolution2d_5 (Convolution2D)  (None, 64, 4, 4)      36928       activation_4[0][0]               
____________________________________________________________________________________________________
convolution2d_11 (Convolution2D) (None, 64, 4, 4)      36928       activation_9[0][0]               
____________________________________________________________________________________________________
convolution2d_17 (Convolution2D) (None, 64, 4, 4)      36928       activation_14[0][0]              
____________________________________________________________________________________________________
input_4 (InputLayer)             (None, 8)             0                                            
____________________________________________________________________________________________________
merge_2 (Merge)                  (None, 64, 4, 4)      0           merge_1[0][0]                    
                                                                   convolution2d_5[0][0]            
____________________________________________________________________________________________________
merge_4 (Merge)                  (None, 64, 4, 4)      0           merge_3[0][0]                    
                                                                   convolution2d_11[0][0]           
____________________________________________________________________________________________________
merge_6 (Merge)                  (None, 64, 4, 4)      0           merge_5[0][0]                    
                                                                   convolution2d_17[0][0]           
____________________________________________________________________________________________________
dense_1 (Dense)                  (None, 10)            90          input_4[0][0]                    
____________________________________________________________________________________________________
activation_5 (Activation)        (None, 64, 4, 4)      0           merge_2[0][0]                    
____________________________________________________________________________________________________
activation_10 (Activation)       (None, 64, 4, 4)      0           merge_4[0][0]                    
____________________________________________________________________________________________________
activation_15 (Activation)       (None, 64, 4, 4)      0           merge_6[0][0]                    
____________________________________________________________________________________________________
activation_16 (Activation)       (None, 10)            0           dense_1[0][0]                    
____________________________________________________________________________________________________
convolution2d_6 (Convolution2D)  (None, 2, 4, 4)       1154        activation_5[0][0]               
____________________________________________________________________________________________________
convolution2d_12 (Convolution2D) (None, 2, 4, 4)       1154        activation_10[0][0]              
____________________________________________________________________________________________________
convolution2d_18 (Convolution2D) (None, 2, 4, 4)       1154        activation_15[0][0]              
____________________________________________________________________________________________________
dense_2 (Dense)                  (None, 32)            352         activation_16[0][0]              
____________________________________________________________________________________________________
ilayer_1 (iLayer)                (None, 2, 4, 4)       32          convolution2d_6[0][0]            
____________________________________________________________________________________________________
ilayer_2 (iLayer)                (None, 2, 4, 4)       32          convolution2d_12[0][0]           
____________________________________________________________________________________________________
ilayer_3 (iLayer)                (None, 2, 4, 4)       32          convolution2d_18[0][0]           
____________________________________________________________________________________________________
activation_17 (Activation)       (None, 32)            0           dense_2[0][0]                    
____________________________________________________________________________________________________
merge_7 (Merge)                  (None, 2, 4, 4)       0           ilayer_1[0][0]                   
                                                                   ilayer_2[0][0]                   
                                                                   ilayer_3[0][0]                   
____________________________________________________________________________________________________
reshape_1 (Reshape)              (None, 2, 4, 4)       0           activation_17[0][0]              
____________________________________________________________________________________________________
merge_8 (Merge)                  (None, 2, 4, 4)       0           merge_7[0][0]                    
                                                                   reshape_1[0][0]                  
____________________________________________________________________________________________________
activation_18 (Activation)       (None, 2, 4, 4)       0           merge_8[0][0]                    
====================================================================================================
Total params: 453,088
Trainable params: 453,088
Non-trainable params: 0
____________________________________________________________________________________________________

elapsed time (compiling model): 2.013 seconds

==========
training model...
Train on 14256 samples, validate on 1584 samples
…
